Start Cross Validation
_________________________________________________________________
Layer (type)                 Output Shape              Param #   
=================================================================
cu_dnnlstm_1 (CuDNNLSTM)     (None, 30, 78)            48672     
_________________________________________________________________
dropout_1 (Dropout)          (None, 30, 78)            0         
_________________________________________________________________
cu_dnnlstm_2 (CuDNNLSTM)     (None, 30, 58)            32016     
_________________________________________________________________
dropout_2 (Dropout)          (None, 30, 58)            0         
_________________________________________________________________
cu_dnnlstm_3 (CuDNNLSTM)     (None, 58)                27376     
_________________________________________________________________
dropout_3 (Dropout)          (None, 58)                0         
_________________________________________________________________
dense_1 (Dense)              (None, 58)                3422      
_________________________________________________________________
dense_2 (Dense)              (None, 28)                1652      
_________________________________________________________________
dense_3 (Dense)              (None, 8)                 232       
_________________________________________________________________
dense_4 (Dense)              (None, 3)                 27        
=================================================================
Total params: 113,397
Trainable params: 113,397
Non-trainable params: 0
_________________________________________________________________
None
started fitting
